…
HKL : [ 3.  0. -4.]; occurance : 1855: NN_weights : 2
HKL : [ 3.  0. -2.]; occurance : 1849: NN_weights : 2
HKL : [ 1.  0. -2.]; occurance : 1812: NN_weights : 2
HKL : [-0. -0.  2.]; occurance : 1811: NN_weights : 2
HKL : [ 2.  0. -2.]; occurance : 1811: NN_weights : 2
0 classes removed from the classHKL object [removal frequency: 500] (before:266, now:266)
Saved class weights data
Model: "sequential"
_________________________________________________________________
Layer (type)                 Output Shape              Param #   
=================================================================
dense (Dense)                (None, 1450)              2103950   
_________________________________________________________________
activation (Activation)      (None, 1450)              0         
_________________________________________________________________
dropout (Dropout)            (None, 1450)              0         
_________________________________________________________________
dense_1 (Dense)              (None, 4715)              6841465   
_________________________________________________________________
activation_1 (Activation)    (None, 4715)              0         
_________________________________________________________________
dropout_1 (Dropout)          (None, 4715)              0         
_________________________________________________________________
dense_2 (Dense)              (None, 7980)              37633680  
_________________________________________________________________
activation_2 (Activation)    (None, 7980)              0         
_________________________________________________________________
dropout_2 (Dropout)          (None, 7980)              0         
_________________________________________________________________
dense_3 (Dense)              (None, 266)               2122946   
=================================================================
Total params: 48,702,041
Trainable params: 48,702,041
Non-trainable params: 0
_________________________________________________________________
Number of spots in a batch of 50 files : 9651
Min, Max class ID is 0, 265
{Epoch: 0} loss: 3.549288, fn: 785693.000000, fp: 14170.000000, tn: 255106176.000000, tp: 177025.000000, precision: 0.925887, accuracy: 0.183880, val_loss: 0.800002, val_fn: 52411.000000, val_fp: 4912.000000, val_tn: 51145384.000000, val_tp: 140609.000000, val_precision: 0.966245, val_accuracy: 0.728469
…
